data/binary_classification/lstm_r8/tc_0/lr_head_mask_0.01_0.01_alpha_0.2.pth (torch, 3407 bytes, 4 tensors)

hidden2label.weight_mask f4 [8, 50]
0	0xc3789062	-248.564
1	0xc1e68e24	-28.819405
2	0xc2b8db69	-92.428535
3	0xc395a01e	-299.25092
4	0xbd823772	-0.063582316
5	0xc20e7204	-35.611343
6	0xc266d2df	-57.70593
7	0xbd65f3c4	-0.056140676
8	0xc145adf6	-12.354971
9	0xbdaafa3e	-0.08348511
10	0xc2f6a8b2	-123.32948
11	0x4085cff4	4.181635
12	0x3e77aad1	0.24186255
13	0xc230725a	-44.11167
14	0x3e053cc4	0.13011461
15	0x4140a017	12.039084
16	0xc2492d59	-50.294285
17	0xbe9c667d	-0.30546942
18	0xc2fc1f82	-126.06154
19	0xc2bdd541	-94.91651
20	0xbdd8ca8e	-0.10585509
21	0xc0ca6b71	-6.3256154
22	0xc3c91163	-402.13583
23	0x41eb0f0b	29.382345
24	0xc1e9ce4a	-29.225727
25	0x3e44ebad	0.19230528
26	0xb8e97788	-0.0001113257
27	0x3cd29702	0.025706772
28	0xbe9c41b0	-0.30518866
29	0xc1dde7e0	-27.73822
30	0xc4832691	-1049.2052
31	0xc2bcf14f	-94.471306
32	0xc47d43af	-1013.05756
33	0xbd94998d	-0.0725585
34	0x41a9cd90	21.225372
35	0xc2430b5f	-48.761105
36	0xc3556433	-213.3914
37	0xbf2aa829	-0.6666284
38	0xc283f81f	-65.98461
39	0xc23d2394	-47.284744
40	0xc2e5ea99	-114.9582
41	0xbd017b1a	-0.03161154
42	0xc3944f56	-296.6198
43	0xc13c57d3	-11.771441
44	0xc3b6161c	-364.17273
45	0xc3b05d89	-352.73074
46	0xc211abcc	-36.41777
47	0xc328af20	-168.68408
48	0xbdbfe69e	-0.093701586
49	0xc162f416	-14.184591
50	0xc1579e57	-13.476157
51	0xc189d36e	-17.228237
52	0xc3340ac7	-180.0421
53	0xc2f836e7	-124.10723
54	0xc2a6e0c8	-83.439026
55	0xc42f1795	-700.36847
56	0xc28de965	-70.95585
57	0xbd0a00cd	-0.03369217
58	0xc36ff7d3	-239.96806
59	0xc2989f82	-76.31154
60	0xc4017c87	-517.94574
61	0xc2d18f1d	-104.77952
62	0xbf5801cd	-0.8437775
63	0xc25d8aa5	-55.385395
64	0xc2951f8e	-74.56163
65	0xc22755fc	-41.83397
66	0xc250e07b	-52.21922
67	0xc3eec1b7	-477.5134
68	0xc0ca62b2	-6.324548
69	0xc2ab6b84	-85.70999
70	0x3e43c80d	0.19119282
71	0xc3ae8646	-349.049
72	0xc33c2bcb	-188.17107
73	0xc15caf72	-13.792833
74	0xc25be15a	-54.97007
75	0xc28ad867	-69.42266
76	0xc302d8c8	-130.8468
77	0xc25ae4f1	-54.723576
78	0xc0caf7c2	-6.342744
79	0xc41cc482	-627.07043
80	0xc37d69ea	-253.41373
81	0xc16475d2	-14.278765
82	0xc20668bc	-33.60228
83	0xc2d47f15	-106.24821
84	0xc3522b74	-210.16974
85	0xc274a8d5	-61.164875
86	0xc2b753b1	-91.66346
87	0xbe00df9c	-0.125853
88	0x41d21048	26.25795
89	0xc4855cae	-1066.8962
90	0xc3c14fa2	-386.62213
91	0x40e9f22b	7.3108115
92	0xc35ec4e8	-222.76917
93	0xc42956a6	-677.3539
94	0xc4033c67	-524.9438
95	0xc4984427	-1218.1298
96	0xc491900a	-1164.5012
97	0xc2c440d4	-98.12662
98	0x40a9ccf8	5.3062706
99	0xc29a0865	-77.016396
100	0xc277a815	-61.914143
101	0xc147577a	-12.458857
102	0xc3091c20	-137.10986
103	0xc32629e2	-166.1636
104	0xc2768044	-61.62526
105	0xc2d1e4c8	-104.94684
106	0xc3385231	-184.32106
107	0xc2db8d85	-109.776405
108	0xc1cc22a8	-25.516922
109	0xc2bc9168	-94.284
110	0xc312419b	-146.25627
111	0xc283a6d1	-65.82581
112	0xc2c6f7bd	-99.483864
113	0xc3fd6953	-506.82285
114	0xc26e19ce	-59.5252
115	0xc2dae032	-109.43788
116	0xc3da2fe6	-436.3742
117	0xc29ad9ca	-77.42537
118	0xc262c86b	-56.69572
119	0xc4405a20	-769.4082
120	0xc1d6ed35	-26.865824
121	0xc3201863	-160.09526
122	0xc35169d6	-209.41342
123	0xc33d1696	-189.08823
124	0xc2b8a7d7	-92.32781
125	0xc253361b	-52.802837
126	0xc4628cac	-906.198
127	0x408fe164	4.4962635
128	0xc3295fb0	-169.37378
129	0xc3219d0c	-161.61346
130	0xc2c9cf35	-100.9047
131	0xc3972f2b	-302.3685
132	0xc3cccff2	-409.62457
133	0xc22e5b20	-43.58899
134	0xc399f730	-307.93115
135	0xc24fd35d	-51.95641
136	0xc2e1fbc7	-112.99175
137	0xc2adda85	-86.926796
138	0xc2d95255	-108.660805
139	0xc18f1d0b	-17.889181
140	0xc20f6a06	-35.85354
141	0xc29366ae	-73.70055
142	0xc253c6be	-52.944084
143	0xc2926648	-73.19977
144	0xc37f4c8e	-255.29904
145	0xc3747047	-244.43858
146	0xc3200234	-160.0086
147	0xbd889c0a	-0.06670387
148	0xc18a6c04	-17.302742
149	0xc38f21c7	-286.2639
150	0xc4a9c06d	-1358.0133
151	0xc4aa287d	-1361.2653
152	0xc4a83cbf	-1345.8983
153	0xc4ab6112	-1371.0334
154	0xc4a8cbf4	-1350.3735
155	0xc4a967c7	-1355.243
156	0xc4aa6150	-1363.041
157	0xc4aa6816	-1363.2527
158	0xc4aaf224	-1367.5669
159	0xc4aafc40	-1367.8828
160	0xc4a83bee	-1345.8728
161	0xc4a9ce9c	-1358.4565
162	0xc4a860e9	-1347.0284
163	0xc4ab2ec9	-1369.462
164	0xc4ab68cc	-1371.2749
165	0xc4a867b2	-1347.2405
166	0xc4a7bc79	-1341.8898
167	0xc4aa4c82	-1362.3909
168	0xc4a6f144	-1335.5396
169	0xc4ab0c57	-1368.3856
170	0xc4a91648	-1352.6963
171	0xc4a73a91	-1337.8302
172	0xc4aa6119	-1363.0343
173	0xc4a79206	-1340.5632
174	0xc4a9777e	-1355.7341
175	0xc4ab4e66	-1370.45
176	0xc4a8b73b	-1349.726
177	0xc4a5bf0e	-1325.9705
178	0xc4aa9957	-1364.7919
179	0xc4a946e0	-1354.2148
180	0xc4ab423e	-1370.0701
181	0xc4a878d7	-1347.7762
182	0xc4aa9c0c	-1364.8765
183	0xc4aa0e32	-1360.4436
184	0xc4aa65a4	-1363.1763
185	0xc4a958b3	-1354.7719
186	0xc4a8e400	-1351.125
187	0xc4a51bcc	-1320.8687
188	0xc4a6b28c	-1333.5796
189	0xc4ab6128	-1371.0361
190	0xc4a9806f	-1356.0135
191	0xc4a74949	-1338.2902
192	0xc4a7491d	-1338.2848
193	0xc4a989ab	-1356.3021
194	0xc4aaf7e8	-1367.7471
195	0xc4a967b7	-1355.2411
196	0xc4ab657d	-1371.1715
197	0xc4a8c1cc	-1350.0562
198	0xc4a551f6	-1322.5613
199	0xc4a78b0a	-1340.345
200	0xc4ab68ce	-1371.2751
201	0xc4ab68ce	-1371.2751
202	0xc4ab68ce	-1371.2751
203	0xc4ab68ce	-1371.2751
204	0xc4ab68ce	-1371.2751
205	0xc4ab68ce	-1371.2751
206	0xc4ab68ce	-1371.2751
207	0xc4ab68ce	-1371.2751
208	0xc4ab68ce	-1371.2751
209	0xc4ab68ce	-1371.2751
210	0xc4ab68ce	-1371.2751
211	0xc4ab68ce	-1371.2751
212	0xc4ab68ce	-1371.2751
213	0xc4ab68ce	-1371.2751
214	0xc4ab68ce	-1371.2751
215	0xc4ab68ce	-1371.2751
216	0xc4ab68ce	-1371.2751
217	0xc4ab68ce	-1371.2751
218	0xc4ab68ce	-1371.2751
219	0xc4ab68ce	-1371.2751
220	0xc4ab68ce	-1371.2751
221	0xc4ab68ce	-1371.2751
222	0xc4ab68ce	-1371.2751
223	0xc4ab68ce	-1371.2751
224	0xc4ab68ce	-1371.2751
225	0xc4ab68ce	-1371.2751
226	0xc4ab68ce	-1371.2751
227	0xc4ab68ce	-1371.2751
228	0xc4ab68ce	-1371.2751
229	0xc4ab68ce	-1371.2751
230	0xc4ab68ce	-1371.2751
231	0xc4ab68ce	-1371.2751
232	0xc4ab68ce	-1371.2751
233	0xc4ab68ce	-1371.2751
234	0xc4ab68ce	-1371.2751
235	0xc4ab68ce	-1371.2751
236	0xc4ab68ce	-1371.2751
237	0xc4ab68ce	-1371.2751
238	0xc4ab68ce	-1371.2751
239	0xc4ab68ce	-1371.2751
240	0xc4ab68ce	-1371.2751
241	0xc4ab68ce	-1371.2751
242	0xc4ab68ce	-1371.2751
243	0xc4ab68ce	-1371.2751
244	0xc4ab68ce	-1371.2751
245	0xc4ab68ce	-1371.2751
246	0xc4ab68ce	-1371.2751
247	0xc4ab68ce	-1371.2751
248	0xc4ab68ce	-1371.2751
249	0xc4ab68ce	-1371.2751
250	0xc49b9867	-1244.7626
251	0xc49de36d	-1263.107
252	0xc49f19f8	-1272.8115
253	0xc4a5ccca	-1326.3997
254	0xc49bbbc8	-1245.8682
255	0xc49fe218	-1279.0654

hidden2label.bias_mask f4 [8]
0	0x4062d7a1	3.544411
1	0xc0e33b75	-7.101008
2	0xbe877b17	-0.26461098
3	0xc4a34ce7	-1306.4032
4	0xc4ab68ce	-1371.2751
5	0xc4971ee4	-1208.9653
6	0xc2094ab9	-34.32297
7	0xc1a9328b	-21.14968

module_head.1.weight f4 [2, 8]
0	0xbf9878c9	-1.1911861
1	0x4005edd7	2.0926416
2	0x3fd980a5	1.6992384
3	0x3f279b06	0.6547092
4	0xbc38c180	-0.011276603
5	0x3f660b83	0.89861315
6	0x408ce366	4.4027586
7	0x3ffe53c1	1.986931
8	0x3fa28504	1.2696843
9	0xbfc0f2c6	-1.5074089
10	0xbfe356c9	-1.776086
11	0xbf2c0382	-0.6719285
12	0x3e06f2e4	0.13178593
13	0xbf4e6d5d	-0.80635625
14	0xc08cf7fa	-4.4052706
15	0xc004d0e8	-2.0752506

module_head.1.bias f4 [2]
0	0x3f99b112	1.2007163
1	0xbfc3ac16	-1.5286891
